…
  Data(x=[1884984, 10], edge_index=[2, 4408782], edge_attr=[4408782, 1], y=[1884984, 1], edge_weight=[4408782, 1], reactions_mask=[1884984])
  undirected: False
  num graphs: 660
  avg num_nodes/graph: 2856
  num node features: 10
  num edge features: 1
  num classes: 2
Precomputing Positional Encoding statistics: ['MagLapPE'] for all graphs...
  ...estimated to be undirected: False
** Using precomputed dataset.pkl
Done! Took 00:00:00.30
GraphGymModule(
  (model): GPSModel(
    (encoder): FeatureEncoder(
      (node_encoder): Concat2NodeEncoder(
        (encoder1): LinearNodeEncoder(
          (encoder): Linear(in_features=10, out_features=32, bias=True)
        )
        (encoder2): MagLapNet(
          (element_mlp): MLP(
            (0): Linear(in_features=2, out_features=4, bias=True)
            (1): Dropout(p=0.0, inplace=True)
          )
          (re_aggregate_mlp): MLP(
            (0): Linear(in_features=200, out_features=32, bias=True)
            (1): Dropout(p=0.0, inplace=True)
          )
        )
      )
      (edge_encoder): LinearEdgeEncoder(
        (encoder): Linear(in_features=1, out_features=32, bias=True)
      )
    )
    (layers): Sequential(
      (0): GPSLayer(
        summary: dim_h=32, local_gnn_type=CustomGatedGCN, global_model_type=Performer, heads=4
        (local_model): GatedGCNLayer()
        (local_model_2): GatedGCNLayer()
        (self_attn): SelfAttention(
          (fast_attention): FastAttention(
            (kernel_fn): ReLU()
          )
          (to_q): Linear(in_features=32, out_features=256, bias=False)
          (to_k): Linear(in_features=32, out_features=256, bias=False)
          (to_v): Linear(in_features=32, out_features=256, bias=False)
          (to_out): Linear(in_features=256, out_features=32, bias=True)
          (dropout): Dropout(p=0.1, inplace=False)
        )
        (norm1_local): LayerNorm(32, affine=True, mode=graph)
        (norm1_attn): LayerNorm(32, affine=True, mode=graph)
        (dropout_local): Dropout(p=0.0, inplace=False)
        (dropout_attn): Dropout(p=0.0, inplace=False)
        (ff_linear1): Linear(in_features=32, out_features=64, bias=True)
        (ff_linear2): Linear(in_features=64, out_features=32, bias=True)
        (act_fn_ff): GELU(approximate=none)
        (norm2): LayerNorm(32, affine=True, mode=graph)
        (ff_dropout1): Dropout(p=0.0, inplace=False)
        (ff_dropout2): Dropout(p=0.0, inplace=False)
      )
      (1): GPSLayer(
        summary: dim_h=32, local_gnn_type=CustomGatedGCN, global_model_type=Performer, heads=4
        (local_model): GatedGCNLayer()
        (local_model_2): GatedGCNLayer()
        (self_attn): SelfAttention(
          (fast_attention): FastAttention(
            (kernel_fn): ReLU()
          )
          (to_q): Linear(in_features=32, out_features=256, bias=False)
          (to_k): Linear(in_features=32, out_features=256, bias=False)
          (to_v): Linear(in_features=32, out_features=256, bias=False)
          (to_out): Linear(in_features=256, out_features=32, bias=True)
          (dropout): Dropout(p=0.1, inplace=False)
        )
        (norm1_local): LayerNorm(32, affine=True, mode=graph)
        (norm1_attn): LayerNorm(32, affine=True, mode=graph)
        (dropout_local): Dropout(p=0.0, inplace=False)
        (dropout_attn): Dropout(p=0.0, inplace=False)
        (ff_linear1): Linear(in_features=32, out_features=64, bias=True)
        (ff_linear2): Linear(in_features=64, out_features=32, bias=True)
        (act_fn_ff): GELU(approximate=none)
        (norm2): LayerNorm(32, affine=True, mode=graph)
        (ff_dropout1): Dropout(p=0.0, inplace=False)
        (ff_dropout2): Dropout(p=0.0, inplace=False)
      )
      (2): GPSLayer(
        summary: dim_h=32, local_gnn_type=CustomGatedGCN, global_model_type=Performer, heads=4
        (local_model): GatedGCNLayer()
        (local_model_2): GatedGCNLayer()
        (self_attn): SelfAttention(
          (fast_attention): FastAttention(
            (kernel_fn): ReLU()
          )
          (to_q): Linear(in_features=32, out_features=256, bias=False)
          (to_k): Linear(in_features=32, out_features=256, bias=False)
          (to_v): Linear(in_features=32, out_features=256, bias=False)
          (to_out): Linear(in_features=256, out_features=32, bias=True)
          (dropout): Dropout(p=0.1, inplace=False)
        )
        (norm1_local): LayerNorm(32, affine=True, mode=graph)
        (norm1_attn): LayerNorm(32, affine=True, mode=graph)
        (dropout_local): Dropout(p=0.0, inplace=False)
        (dropout_attn): Dropout(p=0.0, inplace=False)
        (ff_linear1): Linear(in_features=32, out_features=64, bias=True)
        (ff_linear2): Linear(in_features=64, out_features=32, bias=True)
        (act_fn_ff): GELU(approximate=none)
        (norm2): LayerNorm(32, affine=True, mode=graph)
        (ff_dropout1): Dropout(p=0.0, inplace=False)
        (ff_dropout2): Dropout(p=0.0, inplace=False)
      )
      (3): GPSLayer(
        summary: dim_h=32, local_gnn_type=CustomGatedGCN, global_model_type=Performer, heads=4
        (local_model): GatedGCNLayer()
        (local_model_2): GatedGCNLayer()
        (self_attn): SelfAttention(
          (fast_attention): FastAttention(
            (kernel_fn): ReLU()
          )
          (to_q): Linear(in_features=32, out_features=256, bias=False)
          (to_k): Linear(in_features=32, out_features=256, bias=False)
          (to_v): Linear(in_features=32, out_features=256, bias=False)
          (to_out): Linear(in_features=256, out_features=32, bias=True)
          (dropout): Dropout(p=0.1, inplace=False)
        )
        (norm1_local): LayerNorm(32, affine=True, mode=graph)
        (norm1_attn): LayerNorm(32, affine=True, mode=graph)
        (dropout_local): Dropout(p=0.0, inplace=False)
        (dropout_attn): Dropout(p=0.0, inplace=False)
        (ff_linear1): Linear(in_features=32, out_features=64, bias=True)
        (ff_linear2): Linear(in_features=64, out_features=32, bias=True)
        (act_fn_ff): GELU(approximate=none)
        (norm2): LayerNorm(32, affine=True, mode=graph)
        (ff_dropout1): Dropout(p=0.0, inplace=False)
        (ff_dropout2): Dropout(p=0.0, inplace=False)
      )
      (4): GPSLayer(
        summary: dim_h=32, local_gnn_type=CustomGatedGCN, global_model_type=Performer, heads=4
        (local_model): GatedGCNLayer()
        (local_model_2): GatedGCNLayer()
        (self_attn): SelfAttention(
          (fast_attention): FastAttention(
            (kernel_fn): ReLU()
          )
          (to_q): Linear(in_features=32, out_features=256, bias=False)
          (to_k): Linear(in_features=32, out_features=256, bias=False)
          (to_v): Linear(in_features=32, out_features=256, bias=False)
          (to_out): Linear(in_features=256, out_features=32, bias=True)
          (dropout): Dropout(p=0.1, inplace=False)
        )
        (norm1_local): LayerNorm(32, affine=True, mode=graph)
        (norm1_attn): LayerNorm(32, affine=True, mode=graph)
        (dropout_local): Dropout(p=0.0, inplace=False)
        (dropout_attn): Dropout(p=0.0, inplace=False)
        (ff_linear1): Linear(in_features=32, out_features=64, bias=True)
        (ff_linear2): Linear(in_features=64, out_features=32, bias=True)
        (act_fn_ff): GELU(approximate=none)
        (norm2): LayerNorm(32, affine=True, mode=graph)
        (ff_dropout1): Dropout(p=0.0, inplace=False)
        (ff_dropout2): Dropout(p=0.0, inplace=False)
      )
      (5): GPSLayer(
        summary: dim_h=32, local_gnn_type=CustomGatedGCN, global_model_type=Performer, heads=4
        (local_model): GatedGCNLayer()
        (local_model_2): GatedGCNLayer()
        (self_attn): SelfAttention(
          (fast_attention): FastAttention(
            (kernel_fn): ReLU()
          )
          (to_q): Linear(in_features=32, out_features=256, bias=False)
          (to_k): Linear(in_features=32, out_features=256, bias=False)
          (to_v): Linear(in_features=32, out_features=256, bias=False)
          (to_out): Linear(in_features=256, out_features=32, bias=True)
          (dropout): Dropout(p=0.1, inplace=False)
        )
        (norm1_local): LayerNorm(32, affine=True, mode=graph)
        (norm1_attn): LayerNorm(32, affine=True, mode=graph)
        (dropout_local): Dropout(p=0.0, inplace=False)
        (dropout_attn): Dropout(p=0.0, inplace=False)
        (ff_linear1): Linear(in_features=32, out_features=64, bias=True)
        (ff_linear2): Linear(in_features=64, out_features=32, bias=True)
        (act_fn_ff): GELU(approximate=none)
        (norm2): LayerNorm(32, affine=True, mode=graph)
        (ff_dropout1): Dropout(p=0.0, inplace=False)
        (ff_dropout2): Dropout(p=0.0, inplace=False)
      )
      (6): GPSLayer(
        summary: dim_h=32, local_gnn_type=CustomGatedGCN, global_model_type=Performer, heads=4
        (local_model): GatedGCNLayer()
        (local_model_2): GatedGCNLayer()
        (self_attn): SelfAttention(
          (fast_attention): FastAttention(
            (kernel_fn): ReLU()
          )
          (to_q): Linear(in_features=32, out_features=256, bias=False)
          (to_k): Linear(in_features=32, out_features=256, bias=False)
          (to_v): Linear(in_features=32, out_features=256, bias=False)
          (to_out): Linear(in_features=256, out_features=32, bias=True)
          (dropout): Dropout(p=0.1, inplace=False)
        )
        (norm1_local): LayerNorm(32, affine=True, mode=graph)
        (norm1_attn): LayerNorm(32, affine=True, mode=graph)
        (dropout_local): Dropout(p=0.0, inplace=False)
        (dropout_attn): Dropout(p=0.0, inplace=False)
        (ff_linear1): Linear(in_features=32, out_features=64, bias=True)
        (ff_linear2): Linear(in_features=64, out_features=32, bias=True)
        (act_fn_ff): GELU(approximate=none)
        (norm2): LayerNorm(32, affine=True, mode=graph)
        (ff_dropout1): Dropout(p=0.0, inplace=False)
        (ff_dropout2): Dropout(p=0.0, inplace=False)
      )
      (7): GPSLayer(
        summary: dim_h=32, local_gnn_type=CustomGatedGCN, global_model_type=Performer, heads=4
        (local_model): GatedGCNLayer()
        (local_model_2): GatedGCNLayer()
        (self_attn): SelfAttention(
          (fast_attention): FastAttention(
            (kernel_fn): ReLU()
          )
          (to_q): Linear(in_features=32, out_features=256, bias=False)
          (to_k): Linear(in_features=32, out_features=256, bias=False)
          (to_v): Linear(in_features=32, out_features=256, bias=False)
          (to_out): Linear(in_features=256, out_features=32, bias=True)
          (dropout): Dropout(p=0.1, inplace=False)
        )
        (norm1_local): LayerNorm(32, affine=True, mode=graph)
        (norm1_attn): LayerNorm(32, affine=True, mode=graph)
        (dropout_local): Dropout(p=0.0, inplace=False)
        (dropout_attn): Dropout(p=0.0, inplace=False)
        (ff_linear1): Linear(in_features=32, out_features=64, bias=True)
        (ff_linear2): Linear(in_features=64, out_features=32, bias=True)
        (act_fn_ff): GELU(approximate=none)
        (norm2): LayerNorm(32, affine=True, mode=graph)
        (ff_dropout1): Dropout(p=0.0, inplace=False)
        (ff_dropout2): Dropout(p=0.0, inplace=False)
      )
    )
    (post_mp): GNNInductiveNodeHead(
      (layer_post_mp): MLP(
        (model): Sequential(
          (0): GeneralMultiLayer(
            (Layer_0): GeneralLayer(
              (layer): Linear(
                (model): Linear(32, 32, bias=True)
              )
              (post_layer): Sequential(
                (0): ReLU()
              )
            )
          )
          (1): Linear(
            (model): Linear(32, 1, bias=True)
          )
        )
      )
    )
  )
)
accelerator: cuda
benchmark: False
bn:
  eps: 1e-05
  mom: 0.1
cfg_dest: config.yaml
custom_metrics: []
dataset:
  cache_load: False
  cache_save: False
  dir: ./datasets
  edge_dim: 128
  edge_encoder: True
  edge_encoder_bn: False
  edge_encoder_name: LinearEdge
  edge_encoder_num_types: 0
  edge_message_ratio: 0.8
  edge_negative_sampling_ratio: 1.0
…
